model.pth (torch, 333807 bytes, 10 tensors)

conv.0.weight f4 [6, 1, 3, 3]
00000000: 4f57 d8be 2a5b 9ebe 8a4a a1be 4a6b 54bc
00000010: c39b 87be 9b48 a13e 9ed2 b03e 8643 743e
00000020: 27c9 65be 93c8 40be 0a82 59bb e4ea 623e
00000030: 0149 8f3e d3c9 2bbe 9870 953e 31c8 1dbe
00000040: c63a 423e 4829 0d3f 0459 a93e 524d 46bd
00000050: 63ad 8cbe b489 223f dc7e 3b3f 2740 093e
00000060: e730 963e 86ff 583f d4b2 f93e 41dc 2d3f
00000070: e228 463f 1368 a03e af9e 873e d91b ec3e
00000080: c300 183e e9cb ba3e f4e8 edbd eca3 05be
00000090: 1b29 3a3f 7feb 303f 0468 02bc 700f 293f
000000a0: b271 023f 3984 1a3f 667b 413f 9b71 f93e
000000b0: f01d 3d3f 068a 44be c38c ff3e fb07 173a
000000c0: 112b d83e dc51 633e 007b 3abc 7992 66be
000000d0: daf7 313d 5cd8 54be
-0.4225411 -0.30928928 -0.3150218 -0.012965033 -0.26486024 0.31500706 0.34535688 0.23853883
-0.22440015 -0.18826513 -0.0033189082 0.22159916 0.27985385 -0.16776209 0.29187465 -0.15408398
0.18967733 0.55141115 0.33075726 -0.048413582 -0.27476034 0.6349137 0.7324045 0.13403378
0.29334185 0.847649 0.48769248 0.67914206 0.7740613 0.31329402 0.26488253 0.46114996
0.1484404 0.36483696 -0.11616698 -0.13050812 0.7271897 0.6910934 -0.00795937 0.6603918
0.50954735 0.60358006 0.75578916 0.48719487 0.73873806 -0.19193277 0.4991208 0.0005761382
0.42220357 0.22199196 -0.011381865 -0.22516812 0.04344926 -0.2078566

conv.0.bias f4 [6]
00000000: 9cf1 c53c d1e9 973e 2083 09bd 3dd7 f93d
00000010: efe2 88be 4746 b63d
0.02416306 0.29670575 -0.033572316 0.121992566 -0.26735637 0.08900123

conv.2.weight f4 [16, 6, 5, 5]
00000000: db18 af3c 7cce ef3c 008d 823d 970d 793d
00000010: 3eba 0bbd 0693 73bd e198 84bd 4e75 64bd
00000020: a0d4 cf3d d104 c93d b114 6c3d 0d75 a1bc
00000030: 9718 60bd 04ac 1a3d 0b8b 633d 636f cbbc
00000040: e9e5 feba 5383 95bd 4fc5 dd3c 1c84 5fbd
00000050: f1ac ad3d 0c3c a73d 157b 063c 538c 113d
00000060: a752 f1bc a03b 7c3d 41bc 84bd 0a5c dd3b
00000070: 0096 94bc 0e4a cfba d88c aeba b1d0 69bd
00000080: 18b8 813d d30a 3cbd 04c7 bfbd d5e0 243d
00000090: 4afe 2abd 0c54 963c 3973 c7bc 6e31 b1bc
000000a0: 0fc2 c0bc f272 163d beb2 1b3c a805 debb
000000b0: b313 b33d 3069 ac3d cf47 a53d 577d a63d
000000c0: 1cc5 323d 14f4 0b3b d5eb 943d 4d06 4f3d
000000d0: 60b3 f1bc 7f37 05be 58d4 cfbd f698 99bc
000000e0: 6576 933d 195b 883d 57f6 a83c 0db0 afbc
000000f0: 1208 88bd c662 9fbd 1a35 a73d 0bcc 0a3e
00000100: fa2b 103e bb3a a13b 7d84 ddbc b86b f5bc
00000110: d230 ad3d 9dfa 8e3d 1b8b 893d d30f d5bc
00000120: 4b64 333d 435a 4e3c f880 23bd 21d0 1abd
00000130: 6e2f b43d 12c3 a3bd e4f8 9b3b df39 c3bc
00000140: 2138 e53d 22c9 c9bc b89a 38bc 6c2f c2bd
00000150: eb19 09be 001c c33c ea0d 313d 0ee1 f5bc
00000160: 6a7a 8c3c 8dfd 973c 5eb2 53bd 31ab b73c
00000170: 766a 7c3c 611a 1abd 3e6d f33d 4aef 9fbb
00000180: f0fe e43c 48e3 c8bd adaa 19bd 53bf e33d
00000190: 7696 4c3d f65f 013e 920a 1e3d 1f1a 23be
000001a0: 606a a6bd 6dd4 683d dda3 14bd 9697 413d
000001b0: 2247 babd cfc0 25be 63d4 0dbe dd45 c1bd
000001c0: 3c85 93bc 4b88 623d c291 68bc 45d4 8abd
000001d0: 6dcd 02be d073 e8bc 2b54 f73d 2226 a43d
000001e0: f647 393b da47 8fbd 67c4 6f3c 3e77 d43d
000001f0: 6a9a 033d f8a3 e7bc e693 66bd 1d98 9dbd
00000200: 781d 073d 5b8b 7fbd de22 8b3c 06e9 813d
00000210: 4e45 0bbd 8499 4ebd 1648 aabd 05a5 0fbd
00000220: 7cab 9abd aa21 99bd 543c bd3c 32d4 97bd
00000230: eb79 8ebd ef9c 7dbd 93b8 193d 39ea a13d
00000240: e85d a63c ec33 6e3d b89b bf3b 8de1 2b3d
00000250: 1af3 4dbd 9a5d aa3d 0e7d 84bd f661 36bd
00000260: a011 83bd 863c abbd 896a 0d3b 6c18 0dbd
00000270: 18ef 093c 01da c2ba 8547 28bd 0a86 96bd
00000280: 5230 b2bd 49ab 71bd bda6 7f3a b7f5 b0bd
00000290: 4b01 86bd d8ed 8d3d ea5b 273d f34e 2b3c
000002a0: afd3 413d 963d 133d c4ae 173d 11f6 e13c
000002b0: b089 063d a0c4 bfbd 8ca8 513c 266a 253d
000002c0: d6e0 9e3d dcb6 bbbb 84a1 b23d 71e2 c63d
000002d0: 04a5 abbd b8e9 1a3c fb70 65bd 6784 62bb
000002e0: 14d8 ca3d e3c7 fe3c ee0f b6bc 948d 14bd
000002f0: 39ae 5f3d 0a8e 99b9 1d8a 0dbd 8b45 8abc
00000300: 112f 87bd f9d1 69bd 143b 18bd 3c6b 8bbc
00000310: 012a 33bc 80ba 2dbd 3e25 04bd 4bf7 79bb
00000320: 1731 92bd 80da bdbc 5fd5 a03d 3852 e2bb
00000330: 2db0 e93c 559c 9dbd edcb 063b a18a 58bd
00000340: 8fe2 72bd 1d4c 203d bd43 15bc c5cb e7bd
00000350: 02a5 dcbd e033 2ebd 568a b73d 37b9 9cbc
00000360: b43b 05be c873 edbd 1981 423d ab15 af3d
00000370: 2f95 8abd 1afd 0e3d 8ee6 a43d 49b2 603a
00000380: 81b9 78bd b2b5 43bd 70ca a0bc 8d85 3f3d
00000390: e10d 4fbd b99c 8b3d dbbe 0abd 4d2e 0b3d
000003a0: 93d2 69bd 8392 8c3d d352 523d 09ed 383d
000003b0: c83a 72bd 8e04 0c3d e672 1cbd 630e b63d
000003c0: 7b59 e03c 4afa f5bd 0c29 223d ec00 47bd
000003d0: d6f4 b03d 88d8 8bbd 6cfe 9c3a 4cc8 60bd
000003e0: c053 26bd f19b 923d 913c 923b 941b b0bd
000003f0: 93d1 c13c 674b 983c af43 983c ae28 823c
0.021374157 0.029273264 0.0637455 0.060803976 -0.03411316 -0.059466384 -0.06474472 -0.055775933
0.10147977 0.09815372 0.05763692 -0.019709134 -0.05471095 0.037761703 0.055552524 -0.024833387
-0.0019447181 -0.07300439 0.027071623 -0.05456935 0.084802516 0.0816575 0.008208056 0.035534214
-0.029458357 0.0615803 -0.06481219 0.0067553567 -0.018137932 -0.0015814917 -0.0013317121 -0.05708379
0.06333941 -0.04590876 -0.09364131 0.04025348 -0.041746415 0.018350624 -0.024346935 -0.021630015
-0.023530034 0.036730714 0.009503065 -0.0067755766 0.08743992 0.084185004 0.08070337 0.081293754
0.04364501 0.0021355199 0.07271544 0.05054312 -0.029504478 -0.13009451 -0.10147923 -0.018749695
0.07200316 0.066580005 0.020625276 -0.021446252 -0.06642164 -0.077825114 0.08164425 0.13554399
0.14079276 0.0049203313 -0.027040714 -0.02995859 0.08456577 0.069813944 0.067159854 -0.026008522
0.04379682 0.012594762 -0.039917916 -0.037796143 0.08798109 -0.07996191 0.0047598947 -0.023831306
0.11192346 -0.02463204 -0.011267357 -0.09481701 -0.13388793 0.023817062 0.04322616 -0.030014541
0.017148215 0.01855352 -0.051683776 0.022420498 0.015406242 -0.037622813 0.11886071 -0.0048808204
0.027953595 -0.098089755 -0.037516285 0.111204766 0.04994818 0.12634262 0.0385843 -0.15927933
-0.08125758 0.05684321 -0.036289085 0.047263704 -0.09095599 -0.16186832 -0.1385055 -0.094371535
-0.018007867 0.05530576 -0.014194908 -0.067787685 -0.12773676 -0.028375536 0.12076601 0.08015086
0.0028271652 -0.069961265 0.014634228 0.10374306 0.032129683 -0.028276429 -0.05629339 -0.07695029
0.032987088 -0.06238876 0.0169844 0.06343274 -0.03400164 -0.050439373 -0.083145306 -0.035069484
-0.07552239 -0.07477124 0.023100056 -0.0741352 -0.06956848 -0.06191724 0.03752954 0.079060026
0.02030845 0.058154985 0.0058474205 0.04196315 -0.050280668 0.08318634 -0.06469165 -0.044527017
-0.06399846 -0.08361153 0.0021578392 -0.03444712 0.008418821 -0.0014865996 -0.04108383 -0.07349785
-0.087006226 -0.05900124 0.0009752324 -0.086406164 -0.06543215 0.06930131 0.04085914 0.010455835
0.047321018 0.035947405 0.037031904 0.027583154 0.032846153 -0.09363675 0.012796532 0.040384434
0.07757728 -0.0057285856 0.08722213 0.09711159 -0.083810836 0.009455137 -0.05601595 -0.0034563781
0.09904495 0.031101173 -0.022224393 -0.036267832 0.05460951 -0.0002928826 -0.034555543 -0.016878864
-0.06600774 -0.05708501 -0.037165716 -0.017018907 -0.0109353075 -0.04241419 -0.03226208 -0.0038141783
-0.071382694 -0.023175478 0.07853197 -0.006906774 0.02852639 -0.076958336 0.0020568327 -0.05286658
-0.059298094 0.039135087 -0.009110388 -0.11318163 -0.1077366 -0.04252994 0.08961932 -0.019131286
-0.13011056 -0.11594349 0.0474864 0.08549055 -0.06766736 0.034909345 0.08051787 0.00085714884
-0.060723785 -0.0477807 -0.01962778 0.046758223 -0.050550345 0.06817002 -0.03387342 0.033979703
-0.057085585 0.068638824 0.05134852 0.04514793 -0.05913809 0.03418403 -0.038195513 0.08889463
0.027386418 -0.120106295 0.039589927 -0.048584864 0.08640449 -0.068284094 0.0011977679 -0.054878518
-0.040607214 0.0715865 0.0044627865 -0.0859901 0.023659503 0.018590642 0.018586962 0.015888538

conv.2.bias f4 [16]
00000000: a365 50bd f961 38bd 6929 f1bb c2e3 febd
00000010: e909 58bd 6215 9bbc 00ad 073d 58cc 34bd
00000020: bd53 25bd b468 fb3c fe52 83bd c9b2 92bd
00000030: 2a46 223d 662c fabc b9df 57bd d8ad 903c
-0.05087818 -0.04501531 -0.007359673 -0.12445785 -0.052743826 -0.018931095 0.03312397 -0.04414019
-0.040363062 0.030689575 -0.06412314 -0.07163007 0.039617695 -0.030538749 -0.052703593 0.01766102

fc.0.weight f4 [120, 576]
00000000: 5fbc 8dbc 0387 fa3b cdee 0a3d 8304 1bbd
00000010: 73d8 88bc 1acb febc 39d7 0c3d 9769 963c
00000020: 0980 743c fdaa 5db8 2184 033d 60a1 b93c
00000030: 10b1 30bd 092c 5b3c 702f cdbc 8637 b9bc
00000040: 3a59 ffbc 37dc 853c a282 813c c32b 183c
00000050: 60f7 4cbd 5760 5bbd a197 ccbc d010 0c3d
00000060: fbeb 483c 4e1e 253b a95a c3bc e604 163d
00000070: 799a 09bd 4f18 86ba 6538 863c 6d9d 21bd
00000080: 60e7 a8bc f124 1b3d 01a6 e8bc 2657 b7bb
00000090: a50b 1bbd 43fa dc3b 7a41 e33b debd 21bd
000000a0: e87e 51bc 84ed a93c bbc1 45bc 8b94 9b3a
000000b0: 9815 16bd c9bd 983c c2ce 7abc dcd7 f5bc
000000c0: 4247 6abc c389 173d 7ce7 8fbc 2460 ed3c
000000d0: 2efa 1e3d 2d88 92bc c4ad 3a3d 6d9d 37bc
000000e0: c71f 493c 5dcf ca3c 2174 b0ba e4a4 ed3c
000000f0: f38c f0bc ba5a ba3c 6433 183c 9215 173c
00000100: 6969 bbbb cb0d d4bc 58e1 8dbc 4e04 e9bb
00000110: 4876 c13c 1d58 633d 8e7d 94bc 0587 163c
00000120: 5abc 0a3d 94be 5cbd 3f19 75bd c6fc c13b
00000130: 2586 4cbb f197 ca3b 86af b03b a1f7 72bd
00000140: 228c 19bd 5d2d 993c 7c1a ed3c ac39 b93c
00000150: 43f6 87bc 4ce9 79bc d309 863d 8ba4 313c
00000160: e523 8e3c edbd 1c3c 57df e4bc daf1 cfbc
00000170: db36 963c e17d 00bd a176 5ebd 3869 70bd
00000180: 52d9 473b 33ba 973c f4f9 073d 7699 d0bc
00000190: 0031 0abd 54bd 0cbd 66b9 12bc efb3 e2bc
000001a0: 91b9 30bc 1024 60bc 3180 27bd d0c8 07bd
000001b0: 2a4b dabc 6524 203d ec48 9b3c 8900 3cbd
000001c0: 14e5 34bd b7df 7f3b e206 b5ba d6b4 90bc
000001d0: eb54 a9bc 3a1f 8e3c 3a3f 013d b12d 2e3b
000001e0: 455d 9aba 44da cf3c d387 84bc 4fdb fc3c
000001f0: 0acd 183d 7e84 583c 1c6b a7bc f87b 0b3b
00000200: 3f15 2dbc 55dc 6d3c 3d7e 8abc 2415 1d3d
00000210: 5a3d 1cbb 1204 1a3d 3427 63bc bce6 393d
00000220: 3a8f 5b3c a48f 0bbd 9f55 0cbc 1ecb 213d
00000230: 044f f3bb 8e9c b83c 497c ca3c 2b60 85bb
00000240: a2a3 e63c 2bc2 063d 28ec 983c 690a f1bb
00000250: 0d15 e7bc 77ef f33b f23d b6bc 0847 243d
00000260: cc79 ef3c 9f3b 55bc 4e96 23bc be14 6ab9
00000270: ccd5 16bc 59f0 333d e622 06bb ffd6 ffbc
00000280: 5353 01bd 31f0 89bc 1cb7 9abc de06 a1bb
00000290: efec 57bd 1db9 5c3d 6453 ff3b a711 99bc
000002a0: 479c 25bd 33ae 7dbb 4601 673b 25da b6bc
000002b0: 6b59 343d b1a1 1abd a4a4 2d3d 2825 2e3d
000002c0: bdaf 0b3d 9a66 9b3c 78d5 903c d984 ddbc
000002d0: 3a3c afbc 2506 7e3c 22be 5abb 777d b23c
000002e0: 1661 fabc 5308 e63c cea6 9a3b 089d 54bc
000002f0: 4bc0 a73b 3530 133d 8ace 18bb d1a9 efbb
00000300: 5f3f bcbc cf35 0b3d 1cb2 92bc 41e1 6a3d
00000310: e93a b73c 0414 0abd 0084 263d a440 963c
00000320: c50a 273d 2653 db3c 5a85 773b b6a2 103c
00000330: 3a85 e13c 39c4 9cbc 2f09 dcbb 5b96 e93c
00000340: d437 0f3c 5cfb 25bd d11f 30bb 56fc 0cbd
00000350: b560 ac3b a6ce 3e3c f8dd 3dbd 1316 5cbd
00000360: dec2 04bd 286d fbbc a35a 52bc 517a db3c
00000370: bd02 b8bc 02cd 2b3c 8155 f83c 9fda eb3c
00000380: 04fe 5cbd 5ae5 663a c816 48bc f67a babc
00000390: cd19 3b3b d3ba 5a3c 1ab4 e83c 1146 0bbd
000003a0: e2ae 323d e435 2b3c 8c25 60bc 9fea f93c
000003b0: 6f2e 153d ee48 45bd 89d3 6d3c 856d 9f3b
000003c0: f492 8ebc 5e48 bcbc 48ca df39 172a d8bc
000003d0: a1d2 83bc 079d eb3c 3663 26bc 6a5f 453c
000003e0: 8d7e 943b 321f 0c3d f97c ebbb 4211 82bc
000003f0: 7b32 9c3c 8c44 a63c 75eb b1bc c623 213d
-0.017301736 0.007645489 0.033919144 -0.0378461 -0.016704774 -0.031102706 0.03438494 0.018360896
0.014923104 -5.284975e-05 0.03210843 0.022659957 -0.04313761 0.013377198 -0.025047034 -0.022609483
-0.031170476 0.016340358 0.01580936 0.009287777 -0.050040603 -0.053558674 -0.024974646 0.03419572
0.012263293 0.0025195065 -0.023846941 0.036625765 -0.033594582 -0.0010230633 0.016384313 -0.039456774
-0.02061814 0.037877027 -0.02839947 -0.0055951057 -0.037852902 0.0067437007 0.0069352956 -0.039487712
-0.012786604 0.02074314 -0.012070115 0.0011869831 -0.036641687 0.018645184 -0.015308084 -0.030010156
-0.014299216 0.036996614 -0.017566435 0.028976507 0.03881281 -0.0178872 0.045575872 -0.011206967
0.012275643 0.024757082 -0.0013462343 0.02900929 -0.029364085 0.02274834 0.009289596 0.009221451
-0.005719353 -0.025885483 -0.017319366 -0.007111109 0.023615971 0.055503953 -0.018126275 0.009187465
0.033871032 -0.053892687 -0.05983853 0.0059200255 -0.0031207886 0.0061826636 0.005392018 -0.05931819
-0.037487157 0.018698389 0.028943293 0.022610508 -0.016596919 -0.015253376 0.065448426 0.010842453
0.0173511 0.009566766 -0.027938528 -0.025383878 0.018336704 -0.031370047 -0.054312352 -0.058694094
0.0030494523 0.018521404 0.03319736 -0.0254638 -0.033738136 -0.034360245 -0.008955335 -0.02767369
-0.01078643 -0.013680473 -0.040893737 -0.033150494 -0.02664717 0.03909721 0.01895567 -0.045898948
-0.04416378 0.0039043257 -0.0013811255 -0.017664354 -0.020670375 0.017348874 0.03155444 0.0026577527
-0.0011777064 0.025372632 -0.016178047 0.030866293 0.037304915 0.013215182 -0.020436816 0.0021283608
-0.0105641475 0.014517863 -0.016905898 0.03835024 -0.002384028 0.037601538 -0.013864327 0.04538606
0.013400847 -0.034072533 -0.008565336 0.03950035 -0.007425191 0.022535589 0.024717467 -0.004070302
0.028154198 0.032900017 0.018667296 -0.0073559773 -0.02820828 0.007444318 -0.022246335 0.040106803
0.029232882 -0.013014703 -0.009984566 -0.00022323706 -0.009206247 0.043930385 -0.0020467578 -0.031230448
-0.031573605 -0.016838165 -0.018886141 -0.0049141487 -0.05271619 0.053887475 0.0077919234 -0.018685175
-0.04043224 -0.0038708567 0.0035248562 -0.022320816 0.044030588 -0.037751857 0.04239334 0.042515904
0.034103144 0.018969823 0.017679915 -0.027040886 -0.021391023 0.015504395 -0.0033377488 0.021788342
-0.030563872 0.028080141 0.0047195917 -0.012976892 0.0051193587 0.035934646 -0.0023316466 -0.007313945
-0.022979436 0.033986863 -0.017907195 0.057343725 0.022366958 -0.033710495 0.04065323 0.01834137
0.040781755 0.026773047 0.0037768693 0.008827856 0.027529348 -0.019136535 -0.006714962 0.028514078
0.008741338 -0.040522918 -0.0026874433 -0.034420334 0.005260552 0.0116459485 -0.046354264 -0.05373199
-0.032412402 -0.030691698 -0.012838992 0.026791723 -0.022462243 0.010485889 0.030314209 0.02879077
-0.053953186 0.000880798 -0.012212463 -0.02276371 0.0028549314 0.013350206 0.028406192 -0.034002367
0.043623812 0.01044986 -0.013680827 0.030507384 0.036421236 -0.048165254 0.014515766 0.0048653507
-0.017404057 -0.022983726 0.00042684586 -0.026387258 -0.016091647 0.0287614 -0.01015549 0.012046674
0.0045316876 0.034209438 -0.0071865288 -0.01587737 0.01906704 0.020296358 -0.02171872 0.039340757

fc.0.bias f4 [120]
00000000: f5bf 9b3c 9686 073d cbe4 44bc 7816 3cbd
00000010: 6d39 a13a c24e 28bd 4b0e cf3c 7827 cc3c
00000020: b50c 233d 2c25 203d fe14 663c 8dc5 033d
00000030: bb4c ca3c 7b25 ce3b 2a66 4cbc bc01 2abd
00000040: df5f e63a 2955 05bd 2994 1d3d adf6 a3bc
00000050: 1ab4 4fbc 8643 78bc 5dff 003d 0ea4 0a3d
00000060: d99f 06bd cf95 e9bc e942 583c fef2 1cbd
00000070: d35f 18bd f527 1c3c c76f 283d 971c 943a
00000080: 5ed0 143d a1ec 3abb 034b 99bb 2f24 f9bc
00000090: 626e 793c 3173 5b3c a3d5 8b3c 0b6a 0a3d
000000a0: 4e44 b83c 1e4f 0fbd 5484 3b3c c1b6 bd3c
000000b0: acbb 00bd c995 fdbc a2c0 da3a 86db 2ebd
000000c0: 35a3 8b3a ca5d 13bd 94bb 773c 7a04 27bd
000000d0: b528 fcba b027 123d de9b c7bb 6d0f 993c
000000e0: 9571 aa3c ea59 333b 7c55 fcbc 94e2 873c
000000f0: 2790 e73c 8236 ff3b ce42 393d 9255 10bd
00000100: 44c2 b1bc 4fd0 d0bc abe1 723b 9a4a e6bc
00000110: 5c62 11bd 73e2 a13c 5500 19bc 503e 2b3c
00000120: cd32 c63c 4691 e2bc 9f92 0c3d ff68 1b3d
00000130: cdc1 ce3c da8a 7b3c 7417 23bc 1e38 b3bc
00000140: 67a4 39bc 7f98 36ba d15c ae3c e8f5 bf3a
00000150: 6765 df3c badb d63c 2e35 293d a04b eb3c
00000160: 5892 aabc 53b4 d13c 2d2c ecbc c686 0abd
00000170: 047c 22bd 2074 1bbd 8b84 babc 4ffc 6fbc
00000180: 32f0 9e3c 6eef b9bc 1d4b de3c a9c9 43bd
00000190: 59cb cd3c ee3b a33c 12c8 2c3c 717b ed3c
000001a0: 9c1c 1cbd 819e 0cbd 2fa0 1a3c 539e a5bc
000001b0: 2a3e 3f3c e56a aebc b383 15bd 3a3d cf3b
000001c0: 33dd c53c 2f6e 0dbd 46a7 19bd 984c bfbb
000001d0: cfd5 27bd 5884 a83c e26e 963c 595c 1abc
0.01901243 0.033087336 -0.012017439 -0.045919865 0.0012300439 -0.041090734 0.02527537 0.024921164
0.03980704 0.03909795 0.014043091 0.03217082 0.024694791 0.006291089 -0.01247553 -0.04150556
0.0017576179 -0.03255192 0.038471375 -0.020015085 -0.012677217 -0.015152818 0.031493533 0.03384786
-0.032867286 -0.028513817 0.013199546 -0.038317673 -0.03720076 0.009531011 0.041122224 0.0011300024
0.036331527 -0.002852239 -0.0046781315 -0.030412761 0.015224071 0.013394163 0.017069643 0.033792537
0.022493508 -0.03498756 0.011445124 0.023158433 -0.031428978 -0.030955212 0.0016689489 -0.042689823
0.0010653498 -0.035978116 0.015120406 -0.040775754 -0.0019238206 0.03568238 -0.006091579 0.018684113
0.020806113 0.0027366825 -0.03080248 0.016587533 0.02826698 0.0077884803 0.045229726 -0.035237856
-0.021699078 -0.025489954 0.0037060778 -0.028111745 -0.035494193 0.0197613 -0.009338458 0.010451868
0.024194146 -0.027657162 0.034319516 0.03794193 0.025238896 0.015352929 -0.009954322 -0.021877345
-0.0113307005 -0.0006965473 0.021284493 0.0014645429 0.027270032 0.02622782 0.04131048 0.028722584
-0.020821735 0.02559868 -0.028829658 -0.033819936 -0.03966905 -0.037952542 -0.02276828 -0.014647557
0.019401643 -0.022697177 0.027135426 -0.04779974 0.025121378 0.019926038 0.010545747 0.028989526
-0.03811322 -0.03433085 0.009437605 -0.020217096 0.011672536 -0.021291206 -0.03650255 0.0063244374
0.024153328 -0.034528907 -0.03751304 -0.005837988 -0.04097539 0.020570919 0.01836342 -0.009421431

fc.1.weight f4 [84, 120]
00000000: d7ae 483d afbe a0bd fdf2 023d efaa 8dbb
00000010: d50d 2e3d 5bd0 90bc c3ef 853d 4f36 db3d
00000020: 1b73 19bd cec1 4abd fed7 d63c bc5f 28bd
00000030: c84c 20bd 91c6 f73c 099c dcbb 44f7 8b3d
00000040: a1f7 c1bd 6a48 ddbb d797 82bd c99e febd
00000050: 8d7c e43d 9606 b53d 4481 2abc d572 5e3c
00000060: 8ea4 eb3d 28a7 89bd b6bc 4abd 54eb c2bd
00000070: ab46 c23d 995d 7c3d cd92 643c d54f 9e3c
00000080: b6db dc3d c39e 4b3d 8c6a 0a3d 5527 843d
00000090: 24d0 a63d 5161 3c3d ccce 74bb bf66 dbbd
000000a0: 50ba cb3c 9b1c 0abe e38c 053d f049 3dbd
000000b0: 19af f83c cf96 29bd 8e48 23bc 6174 093d
000000c0: 26b2 96b8 0125 d1bd e1ff d3bc 3906 c33c
000000d0: 7086 34bd d259 5d3d de49 f93c 5c27 8bbc
000000e0: 1515 ce3d ccde 8dbd ff53 eebd 0a54 413d
000000f0: f3c3 5d3d 896d 0f3b 96d0 553d 8863 5f3d
00000100: 6e0c 83bd 96ff 47bc 60d2 a53b 2b93 043c
00000110: cbe7 d73d c942 f5bd 94ea 6e3b 29f8 4cbd
00000120: d780 14bd 6dc5 823d 752f a2bd a35e 8d3d
00000130: f6a6 3f3d a8d1 0b3c 39f9 db3d c451 e83c
00000140: e7e9 9f3c 440e 32bd b0d5 0abd b18c afbc
00000150: fabc 05bd 52eb adbd c62a a73d 0ea5 793d
00000160: 912e a5bd 227b a5bd 867a c53d 9226 bebd
00000170: a822 3cbb e48e 21bd be8d 153d b417 80bc
00000180: c026 6fbd a455 b43c 7d42 7e3d 0a7d 903d
00000190: e8b1 5fbd bd1b a4bd faf7 033d 2c8b 75bd
000001a0: c885 b3bd de4c 07bd 41dd 55bd 4db3 2cbd
000001b0: f907 663d d40d a2bd 609b 10bd 7766 e23c
000001c0: 40e7 2d3d 051c 873d 913e 5b3d 24d5 473d
000001d0: df94 813d 017d bdbd 57f0 99bc 866a 9bbc
000001e0: 500b d53c fda5 ad3d 9aec 2ebd df4e a1bc
000001f0: 8d64 3dbc a700 fc3d 612f 8ebd c5ff 893b
00000200: b3cf 7c3c 927a 34bd 47f2 99bd 871c a23d
00000210: 6c09 2d3d 4c3c c73c b8c8 823c 0e9e 05bc
00000220: 88e2 6d3c fd02 02bc f8c5 ed3d c77d 36bd
00000230: 8448 513d 0672 d0bd a00b d8bc 3cac 693d
00000240: c8ee f13d 1b8b 673d 3525 283d 4b63 593d
00000250: 3057 3c3c 4db9 bcbd a58e 483d 4a08 b43d
00000260: cc36 183d 1a1a cfbc 34a0 8cbd 9efa a7bc
00000270: 15df a4bd 9cc7 c73d 6ca9 56bd 9423 c1bc
00000280: 065f 8a3d 9f9a 2ebd 16e8 2ebd db1b d13d
00000290: f4cc 91bd b2f4 003d d5fe 60bd 82de 29bd
000002a0: 04cc 223b 71b6 9bbd b99a d43d c0fa 133c
000002b0: cafa ccbc f33f b8bc f848 6dbd 28f7 6e3d
000002c0: f1a4 62bd 232d 9d3c 9eaf b7bd ea69 f93d
000002d0: e4eb cf3d 95de 55bd 8181 0b3b 6d1b c2bd
000002e0: 0ed4 5e3d 97f4 73bc 0ee9 08bd a2d7 a6bd
000002f0: 1f33 1f3d 166e fcbc deee 193c acfc 7d3c
00000300: 95e4 99bd 883a 29bd 2d2b 9ebd ef94 b23d
00000310: c3ba 073d 91ff 04bd bb92 813d 3b85 7ebc
00000320: 08cb aebc d98e 0bbd a17c 6cbd 37ce 853c
00000330: 3095 773d e022 b93c 3b72 813d a699 3f3d
00000340: ca6c a8bd b86f 2c3b d639 da3d f1c5 81bd
00000350: f89e 5f3d 1925 233d 18c4 22bc 4d2a 703d
00000360: 105e 143d 1f0a 11bd 7e9a 78bd 7d16 c3bd
00000370: 5053 d73d f4b1 803d 0e55 d13d 4aa5 d7bd
00000380: 4529 c0bd d8eb 87bd a3d1 2cbd 0fcf 15bc
00000390: 9e42 cebd 22f9 9dbc e8e8 3ebc 169c 55bd
000003a0: 41cc 31bc a6b9 a83d 121a bfbc 95f9 0abd
000003b0: 2795 80bd 73e2 643c e849 0f3d e8d3 fc3c
000003c0: 7473 83bd a8e7 c8bd 7889 99bd 2906 443d
000003d0: 7170 f3bd 1961 463c 93e0 85bc 568b 2cbd
000003e0: 425a 993d 271e cebd d2b8 c4bd 2027 03bd
000003f0: bf5e 763d 3669 ccbd 2db2 72bd 0160 103d
0.048994865 -0.0784887 0.031970013 -0.0043233554 0.04249366 -0.017677477 0.065398715 0.10703718
-0.03746329 -0.049501233 0.02622604 -0.041106924 -0.039135724 0.030246051 -0.006732468 0.068342716
-0.094710596 -0.006753017 -0.063766174 -0.124326296 0.11156569 0.08839147 -0.010406796 0.013577183
0.11505996 -0.06721336 -0.049496375 -0.095175415 0.09486135 0.0616127 0.013951016 0.019325176
0.10784094 0.049711954 0.033793017 0.064528145 0.081451684 0.045991246 -0.0037354706 -0.10712957
0.024869114 -0.13487475 0.032605063 -0.04621309 0.03035693 -0.041403588 -0.009966029 0.033558253
-7.18574e-05 -0.10212136 -0.025878849 0.023806678 -0.044073522 0.054040737 0.03043073 -0.016986541
0.10062615 -0.06927261 -0.11637115 0.047199287 0.05414195 0.0021885356 0.052200876 0.05453828
-0.06398855 -0.0122069325 0.005060479 0.008091728 0.10542258 -0.11975629 0.0036455737 -0.05004135
-0.036255684 0.06385312 -0.07919208 0.06902816 0.046790086 0.008533873 0.10740895 0.028359301
0.019520713 -0.043470636 -0.033895195 -0.021429392 -0.032650925 -0.084921494 0.08162455 0.060948424
-0.080655225 -0.08080126 0.0964251 -0.092847005 -0.002870718 -0.03944291 0.03651213 -0.015636303
-0.058386564 0.022013493 0.062075127 0.07055099 -0.054613024 -0.08013103 0.03221891 -0.059947178
-0.08765751 -0.03303229 -0.052212957 -0.042163182 0.056159947 -0.07912794 -0.035304427 0.02763675
0.042456865 0.06597141 0.053526465 0.04878725 0.06327223 -0.09252358 -0.01879136 -0.018971693
0.02600637 0.084789254 -0.04270611 -0.019690929 -0.011559618 0.12304812 -0.069426306 0.0042113983
0.015430379 -0.044062205 -0.07516914 0.079155974 0.042245314 0.024320744 0.01596485 -0.008155359
0.014519341 -0.007935283 0.11610025 -0.044553544 0.051094547 -0.10177998 -0.02637273 0.05704902
0.11813122 0.056529146 0.04105111 0.05307321 0.0114953965 -0.09215031 0.04896416 0.087906435
0.037161633 -0.025281 -0.06866494 -0.020505246 -0.08050362 0.09754869 -0.052407667 -0.023576535
0.067564055 -0.042627927 -0.042701803 0.10210391 -0.0711917 0.03148336 -0.054930527 -0.041471966
0.002484084 -0.07603157 0.103810735 0.009031951 -0.02502193 -0.02249143 -0.057930917 0.058341175
-0.05533308 0.019186562 -0.08969043 0.12178405 0.101524144 -0.052214224 0.0021286907 -0.09477887
0.05440145 -0.014889858 -0.033425383 -0.081465974 0.038867112 -0.030814212 0.009395329 0.015502136
-0.07514302 -0.041315585 -0.07723079 0.08719813 0.033137094 -0.03247029 0.06326815 -0.015534694
-0.021337047 -0.034071777 -0.057736043 0.016333682 0.06044501 0.022599638 0.06320616 0.04677739
-0.08223875 0.0026311707 0.106555626 -0.063365825 0.054594964 0.0398303 -0.009934448 0.05863409
0.036222517 -0.035410043 -0.06069421 -0.09525774 0.105139375 0.06283942 0.10221301 -0.10529573
-0.093828715 -0.066367805 -0.042192113 -0.009143605 -0.100713 -0.019283835 -0.011652209 -0.05215081
-0.010851921 0.08238535 -0.023327861 -0.033929426 -0.062784486 0.013970005 0.034982592 0.030862764
-0.06418505 -0.0980981 -0.07496923 0.047857437 -0.11886681 0.012108111 -0.016342437 -0.04212507
0.074879184 -0.10064345 -0.09605564 -0.032019734 0.06014895 -0.09981005 -0.059251953 0.035247806

fc.1.bias f4 [84]
00000000: 2ef6 71bc 2e99 09bd 69e1 9d3d ccc5 b33d
00000010: 4625 b8bd 0128 1fbd f0d5 2f3c 0ec8 193d
00000020: 6bbf 79bd d251 0a3d fb26 b63d 90fd 74bd
00000030: 2b8f 6c3d 12cc a53d 7f41 9b3d 3283 b53d
00000040: 59ab 92bd 5444 653d ece8 ad3d 59b0 b03b
00000050: d6e2 45bd 6ba2 61bc bf54 4cbd 6ca0 ec3c
00000060: 74f1 48bd c8cc 123c 1e5d cebb dd9a b4bd
00000070: a2ae 80ba 73b2 363c 6adf f93c e91c 80bd
00000080: 7603 67ba a901 6c3d eaba b4bd 2b14 783d
00000090: 0dac 85bc b1dc 8bbc 3d1d 28bd c82e 86bd
000000a0: 5a99 8a3d 6705 9a3d 86f2 ccbb 5dca 9cbd
000000b0: 136d 4ebd 69a9 193d 7ded ca3c 58b0 a13a
000000c0: 05d6 5f3d 2b4b 64bc 9cbc 923d 78f9 50bd
000000d0: 72fa afbc 5fb7 89bd f4ec 1fbd 60e8 9cbc
000000e0: 5b76 21bc f946 99bd 7839 b33c c4bf 803d
000000f0: 02d5 69bd bc1d 6f3c 85a7 51bd 6f10 b43d
00000100: 27f2 b13c 8dd8 0cbd 3c5e a23c 0d8d cabc
00000110: 0d40 a5bd 2b3f 9f3c 4016 27bd 297c b13d
00000120: fe55 15bc 1d50 6f3c 5a59 aebd 426d 1c3d
00000130: 52b7 7a3c 59ac 85bc c8a9 47bd 6a48 34bd
00000140: bdc1 b33d 5fba 8ebc c517 9a3c 2fe7 573d
-0.0147681665 -0.03359335 0.07709009 0.08777961 -0.08991484 -0.03885651 0.010732159 0.037544303
-0.060973566 0.033769436 0.08894154 -0.05981213 0.057753723 0.08095564 0.07580852 0.08862914
-0.07161588 0.055973366 0.08491692 0.005392116 -0.04831203 -0.013771634 -0.049885508 0.028885089
-0.049058393 0.0089599565 -0.0062977215 -0.088186 -0.000981767 0.011150944 0.03050204 -0.06255514
-0.00088124664 0.05761877 -0.088247135 0.06056611 -0.016317392 -0.017073007 -0.04104351 -0.065518916
0.06767531 0.07520562 -0.006254497 -0.07655785 -0.05039699 0.037515078 0.024771446 0.001233588
0.054647464 -0.013933937 0.07164881 -0.051019162 -0.021481726 -0.067244284 -0.039044335 -0.019153774
-0.009854878 -0.0748424 0.02187799 0.062865764 -0.057087906 0.014594492 -0.05118515 0.08792197
0.021721913 -0.034386206 0.019820325 -0.024725461 -0.08068857 0.0194393 -0.040792704 0.0866626
-0.00911474 0.014606503 -0.08513136 0.038190134 0.015302496 -0.016317533 -0.0487459 -0.044014372
0.08777187 -0.017422853 0.018810162 0.05271071

fc.2.weight f4 [10, 84]
00000000: 46b8 d8bc 5166 933c 98e2 15bd 635c e33d
00000010: d4c9 83bd 3413 18be b37f 0dbe cb04 23be
00000020: 34f0 05bd 05b5 b5bd 97cd 73bd 3a2b 9cbd
00000030: 4459 17be 14ec c6bd 569d 213e a5ed 04bb
00000040: 1efa 983d 1a73 e8bc 542e 713d cb3a 1a3e
00000050: 28b7 bfbd 7c65 32be e124 c4bd 5493 dd3d
00000060: a94f 2c3d 78e6 cd3c 6ec3 a3bd 48f1 d0bd
00000070: 1a7f ffbd 652e 32be 0e7c fc3d 25c7 243e
00000080: c1cb 9d3d 3847 173e 9d15 d4bd 7ef2 12be
00000090: 9a8f c63c e78b 303e 15aa 1d3d c182 1abd
000000a0: 519d b9bc 88cd 21be 54cb 033e 595c a63d
000000b0: 488e 603d 102a b0bc b4d1 02be d35b fa3d
000000c0: 2cf7 313b f620 8a3d 985c 053d 4dec 28be
000000d0: e4b0 bebc 2229 373e fc42 0abd 1a77 2d3c
000000e0: 4d8d a9bd 8d5a b4bd c326 b03c 708d 15be
000000f0: 843f 15be 9aa3 20be eb00 4a3c 0a99 1e3d
00000100: 03e8 0a3e 393b 4e3e 6996 fdbd 99a7 d83c
00000110: 3e41 f4bb 1e88 34bd 28ac b7bd 69c4 de3c
00000120: 7b2c 4abe 9de3 19be a963 553c 0427 06be
00000130: db82 efbd 1128 243e ce21 973d f7fd 4d3e
00000140: e7cd 34be e6e4 aebd 2418 10bd 3db6 12be
00000150: d5ee 4ebc 35b5 263e 6ce2 31be b67c 28be
00000160: 0c96 c3bc e29e 54bc ebf8 73bd 45a9 8c3c
00000170: f9db f13c 5a5d 6c3d 5730 373e 90f6 97bc
00000180: a5fd 2dbe 2051 4cbe 723c 7d3d 33be b2bc
00000190: 2af8 683d 92f6 2f3e 7423 323d e41a 11be
000001a0: 4f56 19be 48a7 2ebe 798c 2cbe ea96 503d
000001b0: 623b f9bd ba9d 5dbc 8404 df3c 2512 babd
000001c0: 2a7b 9a3d 6afb fc3d 143c 34bd 424d 7d3d
000001d0: 0dd3 233e d4d3 37bd 48c7 fa3d 7f18 7e3d
000001e0: 93bb 233e ce42 80bd e17e 023e 8463 a13b
000001f0: 1c2f 0f3d 6ff5 d93d c932 fabd 7c3c 28be
00000200: fffc 243e 36e9 853d 8d73 81bd 35e9 aa3d
00000210: cf10 b73d 2c32 ee3d aafe 353d 815b 5c3e
00000220: 0a1a dd3d 681a 8e3d eb94 993d 2251 f1bd
00000230: 0d88 99bc e5db 9a3d 3523 053d c9b5 a43c
00000240: 0257 2d3e e1ac 463d ce7c 21be 415f 023d
00000250: 5e1f 013e 6253 f7bd 0857 b73d 90c4 203d
00000260: 5123 f53d 23cb 88bd dfbd e43d 4b69 4f3e
00000270: a9e0 0b3d c2e1 89bd b33b 06bd 9a20 1c3c
00000280: 97ad 37be f3aa 3f3d 4826 5ebe c64e 1bbd
00000290: c8b0 4b3d af8c 0b3e 5265 5d3d 2f7b 273e
000002a0: d323 fe3d c747 573d 7870 26be 348a 35bd
000002b0: 5a23 303d 6b31 f2bd f0fd f1bd 12b1 383d
000002c0: 9714 283d 6c09 ed3d 7460 11bd 6fa2 333e
000002d0: 0240 5dbe d48e 9c3d 62b2 f53d b258 553d
000002e0: d2b0 e23d b484 fdbd 9441 2f3c ac55 443d
000002f0: 4141 babc e67a 013d 8cb5 013d 943f e33b
00000300: 778e 5fbd 4ef0 f7bc 6deb 22be 2089 90ba
00000310: 8b1f e1bd 8542 90bd f535 4cbe 5845 00bd
00000320: 8feb 6f3c 0dc9 c3bd 6bad 0ebe 59fb c6bd
00000330: 1fc7 0abd 4033 c43d 4145 ca3b 0fd6 fd3d
00000340: 05c3 f43d 653b e5bd cfa7 1d3e ec14 243e
00000350: e221 183d 0bd3 1a3c bee0 1f3d 884a 483e
00000360: 7c44 cfbc f8f4 4d3e 5cb7 5a3a 4727 bd3d
00000370: 2e44 2bbe 0668 543e 2e79 0a3e 95ac 933d
00000380: 0f33 85bd 400b 033e cccd 31be 9e6c 0bbd
00000390: 0cad 203d 141b b23d dc9f 54be 7acd e13c
000003a0: 2671 44bb ba16 d73d 3a3e 48be b3b6 67bd
000003b0: 8800 203e 88c4 febd fba7 4f3e 7378 70bd
000003c0: 1d66 403e 44d3 433d 618e 2fbe 6837 44be
000003d0: b4e0 453d 4eb2 10be ce72 c83d ed3f 3cbe
000003e0: b093 0d3e db79 b6bd 413f 45bc 9ba6 0e3e
000003f0: cd59 223e 9d6c 693d 9886 1ebc 8056 03be
-0.026455056 0.017993124 -0.03659305 0.11101606 -0.0643498 -0.14851075 -0.13818245 -0.15919797
-0.03269978 -0.08872417 -0.059522238 -0.07625432 -0.14780146 -0.09712997 0.15782675 -0.0020283249
0.07469581 -0.028375197 0.058882073 0.1506149 -0.09361106 -0.17421526 -0.095773466 0.10819116
0.042068157 0.02513431 -0.0799626 -0.10202271 -0.124754146 -0.1740051 0.12328349 0.16091593
0.077048786 0.14773262 -0.10355685 -0.14350316 0.024238396 0.17240869 0.03849228 -0.037722353
-0.022658022 -0.1580106 0.12870532 0.08123083 0.05482319 -0.021504432 -0.12775308 0.12224545
0.0027155383 0.06744568 0.032559007 -0.16496392 -0.023277707 0.17886785 -0.033755288 0.010587478
-0.08278904 -0.08806334 0.021502858 -0.14604735 -0.1457501 -0.15687409 0.01232932 0.03872017
0.13565068 0.20139779 -0.12382204 0.026447104 -0.0074540665 -0.044075124 -0.08968383 0.027193265
-0.1974353 -0.15028234 0.013024249 -0.13100821 -0.116948806 0.16030909 0.073794946 0.20116411
-0.1765667 -0.08539753 -0.035179272 -0.14327331 -0.012630184 0.16280062 -0.1737153 -0.16453823
-0.023875259 -0.012977334 -0.05956356 0.017170558 0.029523836 0.057706214 0.17889534 -0.018550187
-0.16991289 -0.19952822 0.061825223 -0.02181921 0.056877293 0.17183903 0.043490842 -0.14170414
-0.1497433 -0.17056 -0.16850461 0.050925173 -0.121695295 -0.0135263745 0.027223833 -0.09085492
0.07543023 0.12352641 -0.044002607 0.061841257 0.15998478 -0.04487975 0.12245041 0.06203508
0.15989523 -0.06262742 0.12743713 0.0049251933 0.034957036 0.10642516 -0.12216718 -0.16429323
0.16112135 0.06538622 -0.06320868 0.08345262 0.08938753 0.11630663 0.04443232 0.21519281
0.10795982 0.0693863 0.07499107 -0.11783053 -0.018741632 0.07561473 0.03250428 0.020106213
0.16927722 0.048504714 -0.15770265 0.031829122 0.12609622 -0.12076451 0.08952147 0.039249957
0.11969627 -0.0667937 0.111690275 0.2025501 0.0341498 -0.06732513 -0.032771777 0.009529257
-0.17937313 0.04679389 -0.2169429 -0.03791692 0.04972914 0.13627885 0.054051705 0.16355585
0.12409177 0.052558687 -0.16253841 -0.044321254 0.043002464 -0.11825832 -0.11816013 0.045090742
0.04103526 0.11574063 -0.035492375 0.17542432 -0.21606448 0.0764443 0.119969144 0.05208654
0.11068882 -0.12378827 0.010696787 0.047933266 -0.022736194 0.031611346 0.031667277 0.0069350693
-0.054579224 -0.030265953 -0.1591012 -0.0011027195 -0.109923445 -0.070439376 -0.19942458 -0.03131613
0.014643564 -0.09559832 -0.13933341 -0.097159095 -0.033881303 0.09580088 0.0061728065 0.12394344
0.119512595 -0.11192969 0.15396045 0.16023606 0.03714169 0.009449731 0.03903269 0.19559681
-0.02530121 0.2011298 0.0008343363 0.09236007 -0.16725227 0.20742807 0.13522789 0.07210652
-0.06503879 0.1279726 -0.17363662 -0.034039132 0.03922753 0.08696571 -0.20764107 0.0275638
-0.0029974668 0.105023816 -0.19554988 -0.05657072 0.15625203 -0.12439829 0.20278923 -0.05870862
0.18788953 0.0478089 -0.17144157 -0.19161761 0.048309997 -0.14130518 0.09787522 -0.18383761
0.1382587 -0.08909961 -0.012039007 0.13930742 0.15854569 0.056988347 -0.009675644 -0.12825966

fc.2.bias f4 [10]
00000000: ceb1 0ebd e36f d63d 746e 75bd 01e9 443a
00000010: 9822 60bd 2b91 2ebc fed6 673d e478 7ebd
00000020: 0a99 41bc ebc5 9d3d
-0.034837537 0.104705594 -0.05991979 0.0007511527 -0.05472049 -0.010654728 0.056601517 -0.06212701
-0.0118162725 0.077037655
